model_folder/model_2_best_1.pt (torch_old, 133567 bytes, 10 tensors)

conv1.weight f4 [6, 1, 5, 5]
-0.3051159 -0.20128125 -0.15264024 0.31429207 0.19658144 -0.13440867 0.20583041 0.1765553
0.40734324 0.2484832 0.26015356 0.002910209 0.38444108 0.22418222 0.28443035 0.2418822
0.21686807 0.27951887 0.05144514 0.28702018 -0.12344383 0.06435784 0.027093612 0.005834699
-0.11041186 0.22061259 0.058268867 0.20953132 0.07628835 -0.074879795 0.39920324 0.33273292
0.26446727 -0.04212012 0.23632012 -0.019470608 0.32495457 0.3020642 0.20864642 0.00086579286
-0.18577707 -0.13428827 0.3186677 0.02550963 0.16271013 -0.34963268 0.112004004 -0.0033562393
-0.10849817 -0.13847414 0.006925221 -0.32357252 -0.29452008 -0.2512942 -0.073569134 -0.036816455
-0.2733988 -0.28003296 -0.047757696 0.30334267 -0.092309535 0.08784696 0.2155094 0.30700517
0.4030488 -0.06495745 0.15321605 0.03686516 0.3200164 0.42208216 -0.10999224 -0.054240063
0.09655656 0.26407903 0.37233424 0.20410573 0.10461962 0.23103379 0.25514847 0.24442299
0.050727572 0.17463347 0.35310578 0.33979836 0.22187787 0.084472604 0.3201492 0.14351039
0.014338459 0.3085809 0.080487266 0.14390378 0.14233643 -0.06118986 0.28407755 -0.047687214
-0.19709867 0.01912466 -0.14289664 -0.25170457 0.34225526 0.34684446 0.24187157 0.062697105
-0.2464455 0.25400427 0.21825191 -0.014061574 -0.30450884 -0.35941932 0.18802376 0.014655891
-0.31254527 -0.23525894 -0.39016655 0.08295031 -0.083083145 -0.27924475 -0.16332388 -0.14863285
0.017338129 0.16888656 -0.29765633 -0.1323371 -0.12125738 0.21026835 0.22547688 -0.12371911
-0.25808963 -0.21202502 0.12893541 0.38026366 -0.024212338 -0.17981619 -0.33174586 0.042628333
0.41076124 -0.04971955 0.028722275 -0.21224426 0.16410494 0.4303768 0.39525285 0.27382275
0.09678474 0.2502537 0.018679272 0.115962096 0.1737985 0.42491922
00000000: 2738 9cbe ac1c 4ebe b94d 1cbe e4ea a03e
00000010: a54c 493e 6da2 09be 35c5 523e eaca 343e
00000020: 4b8f d03e 6172 7e3e d932 853e 34b9 3e3b
00000030: 76d5 c43e 0690 653e dba0 913e f8af 773e
00000040: aa12 5e3e 191d 8f3e 24b8 523d 4ff4 923e
00000050: 1ed0 fcbd 0bce 833d 6cf3 dd3c 0131 bf3b
00000060: 9d1f e2bd 44e8 613e 56ab 6e3d 618f 563e
00000070: 113d 9c3d 945a 99bd 5e64 cc3e f85b aa3e
00000080: 4168 873e 2686 2cbd e7fd 713e d380 9fbc
00000090: 7260 a63e 29a8 9a3e 68a7 553e 60f6 623a
000000a0: 583c 3ebe dd82 09be 6a28 a33e 92f9 d03c
000000b0: 7c9d 263e 0e03 b3be 5b62 e53d 5af4 5bbb
000000c0: 4a34 debd 2acc 0dbe f7ec e23b 4cab a5be
000000d0: 56cb 96be a2a9 80be 6aab 96bd dacc 16bd
000000e0: edfa 8bbe 7b60 8fbe 939d 43bd bb4f 9b3e
000000f0: c80c bdbd 1be9 b33d 7fae 5c3e c82f 9d3e
00000100: 6a5c ce3e 6908 85bd abe4 1c3e ecff 163d
00000110: 31d9 a33e 271b d83e 9d43 e1bd d42a 5ebd
00000120: 72bf c53d 5e35 873e 98a2 be3e 1801 513e
00000130: d042 d63d 1f94 6c3e d2a2 823e 054a 7a3e
00000140: b7c7 4f3d 1ed3 323e 48ca b43e 0dfa ad3e
00000150: f433 633e f9ff ac3d 99ea a33e 63f4 123e
00000160: dbeb 6a3c 51fe 9d3e 82d6 a43d 835b 133e
00000170: a4c0 113e 38a2 7abd 9d72 913e ab53 43bd
00000180: 3cd4 49be 52ab 9c3c 7f53 12be 6cdf 80be
00000190: 153c af3e 9995 b13e 2ead 773e 5767 803d
000001a0: 365c 7cbe d90c 823e 6e7d 5f3e 8462 66bc
000001b0: 95e8 9bbe cf05 b8be 4d89 403e 431f 703c
000001c0: ef05 a0be b8e7 70be e9c3 c7be dae1 a93d
000001d0: 7f27 aabd 2bf9 8ebe 603e 27be 3633 18be
000001e0: b108 8e3c 99f0 2c3e 6966 98be 6083 07be
000001f0: ca55 f8bd 9650 573e 69e3 663e 7260 fdbd
00000200: 5324 84be 161d 59be a507 043e ebb1 c23e
00000210: f458 c6bc bc21 38be 98da a9be 0c9b 2e3d
00000220: 4c4f d23e baa6 4bbd fa4a eb3c 8f56 59be
00000230: 200b 283e 595a dc3e 955e ca3e 7f32 8c3e
00000240: 1437 c63d 4121 803e 4605 993c 897d ed3d
00000250: 3cf8 313e 038f d93e

conv1.bias f4 [6]
0.17148994 0.10498606 0.29615247 0.044928405 0.20283516 6.86175e-06
00000000: 0f9b 2f3e ee02 d73d 4ca1 973e d906 383d
00000010: 05b4 4f3e fc3d e636

conv2.weight f4 [12, 6, 5, 5]
-0.00062824535 -0.008018317 -0.12914485 -0.09366007 -0.018612128 -0.026659984 0.029241 0.0029636053
0.09667376 0.104875565 -0.025781598 0.062065538 0.058946777 0.21406502 0.13613382 0.00014178343
0.015368536 -0.119502775 -0.09669067 -0.06147914 -0.11548171 -0.117583975 -0.0492006 -0.0775756
-0.037421733 -0.04374171 0.0789614 -0.091862224 -0.012719429 -0.1394633 0.027536042 0.010346165
-0.04954552 -0.030232701 -0.03390777 0.058658607 0.008009196 0.1783664 0.12796603 0.16082375
-0.05960991 -0.03426189 0.020363897 -0.0038433375 -0.014256779 0.021600965 -0.14625281 -0.09047079
-0.13554299 -0.102596305 0.07900335 -0.08003213 -0.010608958 0.08612888 0.0023277614 0.0050354786
-0.028588088 0.12909454 0.06251686 0.16162246 -0.11263258 0.045443125 0.1406402 -0.012790958
-0.04285811 -0.23116115 -0.14730534 -0.19505382 -0.131274 -0.079626344 -0.054002 0.051141366
0.08599152 -0.027299788 -0.008145546 -0.050184865 -0.08453081 -0.030132765 -0.082177855 -0.024102569
-0.046272404 0.029021328 0.04438893 -0.015710855 0.11656174 0.11036561 0.12403889 0.099488385
0.1388126 0.19429241 0.048179846 0.03672647 -0.06537894 -0.08984818 -0.10421123 -0.11350496
-0.073968776 -0.091040604 -0.23304166 -0.17287362 0.08041676 0.081554614 0.22047932 0.17901
0.08567496 0.0018776765 -0.06618799 -0.004592923 -0.042702354 -0.1844686 -0.10924458 -0.1272072
0.054536495 0.042343646 0.11232606 0.067108124 -0.0481484 0.1444597 0.17085268 0.11065045
-0.06737603 -0.09008572 -0.031327732 -0.05428115 0.020841215 -0.008643455 -0.081220366 -0.016972471
-0.094062895 -0.013430598 0.06687765 0.081976496 0.14692736 0.03886405 0.040569894 -0.1283081
-0.048920352 -0.06887985 -0.100343555 -0.09235312 -0.0082391845 -0.07435681 -0.22408028 -0.06844633
-0.18850431 0.11122831 0.119380355 0.08090026 -0.049031656 -0.08249299 -0.009488117 0.059355207
0.005235744 -0.012566898 0.0016233512 0.05025097 0.0996251 0.16069855 0.13786651 0.023842365
-0.0056628385 -0.062470272 -0.030406684 0.042668674 -0.01635848 -0.1978849 -0.15523238 -0.058848385
-0.04858253 -0.013946511 -0.07493085 -0.022494048 -0.09048946 0.0060907896 -0.063639164 0.06720968
-0.0065052817 -0.0075502447 -0.003298498 -0.11989234 0.13059914 0.033070743 0.035154376 0.058964096
-0.0026802635 0.024711743 0.08457264 0.092284806 0.13419437 0.13015352 -0.14162524 -0.12524873
-0.050658934 -0.14527738 -0.09879792 -0.15117867 -0.00294526 -0.12832056 -0.05702787 -0.15388347
0.11586876 0.07892418 -0.011551448 -0.0143741695 0.014691122 -0.04498046 0.15611424 0.009773865
0.05198741 0.024601577 -0.09881971 0.009497429 0.048583288 -0.07930818 0.0894788 0.022819636
-0.11417225 -0.044565354 0.0071194237 -0.057182543 0.173768 0.090491064 0.11232626 0.15038274
0.03561182 0.0133544365 0.058757544 0.037258882 -0.014066363 -0.0009680093 0.062478237 0.081148595
0.021180904 0.062482685 0.09035702 0.0023631563 0.017528858 0.07635047 0.11252414 0.07216197
-0.23123117 -0.18464981 -0.16982758 -0.042599145 -0.04377649 -0.16049853 -0.12091766 -0.1507218
-0.041194405 -0.019080605 -0.004385466 0.0029781507 -0.008523105 -0.14985776 -0.010800607 -0.06328994
00000000: d5b0 24ba 425f 03bc 8c3e 04be dad0 bfbd
00000010: 7678 98bc 0a66 dabc d28a ef3c 0c39 423b
00000020: e4fc c53d 00c9 d63d ee33 d3bc 6f38 7e3d
00000030: 2d72 713d dc33 5b3e aa66 0b3e b3ab 1439
00000040: 50cc 7b3c dfbd f4bd c205 c6bd 8dd1 7bbd
00000050: ad81 ecbd decf f0bd 9186 49bd f5df 9ebd
00000060: 8847 19bd 822a 33bd 84b6 a13d 4322 bcbd
00000070: 2765 50bc 78cf 0ebe 4493 e13c f682 293c
00000080: 3ef0 4abd 92aa f7bc e0e2 0abd 0244 703d
00000090: 0139 033c aea5 363e 8709 033e fbae 243e
000000a0: 8529 74bd 3256 0cbd 30d2 a63c 81e0 7bbb
000000b0: 4495 69bc 82f4 b03c 4cc3 15be c048 b9bd
000000c0: c8cb 0abe 031e d2bd 82cc a13d e3e7 a3bd
000000d0: 32d1 2dbc 5764 b03d 5b8d 183b a800 a53b
000000e0: 9131 eabc 5c31 043e d708 803d 5c80 253e
000000f0: e9ab e6bd 9222 3a3d fc03 103e 2b91 51bc
00000100: fc8b 2fbd 82b5 6cbe 36d7 16be 30bc 47be
00000110: b16c 06be 2313 a3bd 3331 5dbd 9c79 513d
00000120: 521c b03d cea3 dfbc e574 05bc a58e 4dbd
00000130: 7d1e adbd fdd8 f6bc dd4c a8bd c072 c5bc
00000140: 2288 3dbd 23be ed3c 2bd1 353d 0db4 80bc
00000150: ecb7 ee3d 5d07 e23d 1a08 fe3d 91c0 cb3d
00000160: e424 0e3e 97f4 463e 3b58 453d 7f6e 163d
00000170: 65e5 85bd 5302 b8bd b36c d5bd 4a75 e8bd
00000180: f17c 97bd 7f73 babd 79a2 6ebe c805 31be
00000190: 8bb1 a43d 1b06 a73d 55c5 613e 664e 373e
000001a0: 5a76 af3d 5e1c f63a 928d 87bd 3b80 96bb
000001b0: aae8 2ebd 56e5 3cbe 9fbb dfbd 9b42 02be
000001c0: a961 5f3d 8870 2d3d 350b e63d fc6f 893d
000001d0: 4237 45bd 3eed 133e 01f4 2e3e b49c e23d
000001e0: 72fc 89bd dd7e b8bd 8251 00bd e955 5ebd
000001f0: 32bb aa3c 479d 0dbc dd56 a6bd da09 8bbc
00000200: 0ca4 c0bd 030c 5cbc 26f7 883d 4be3 a73d
00000210: 2074 163e e92f 1f3d 9e2c 263d 3363 03be
00000220: b560 48bd e110 8dbd ec80 cdbd a223 bdbd
00000230: a5fd 06bc 6248 98bd 4d75 65be 972d 8cbd
00000240: 4607 41be abcb e33d b07d f43d 09af a53d
00000250: 6bd5 48bd 16f2 a8bd 0c74 1bbc 721e 733d
00000260: 9b90 ab3b 64e5 4dbc a1c6 d43a f6d3 4d3d
00000270: 3f08 cc3d 298e 243e e12c 0d3e 1051 c33c
00000280: 558f b9bb d4e0 7fbd 7017 f9bc 59c5 2e3d
00000290: 3802 86bc 57a2 4abe 3df5 1ebe 010b 71bd
000002a0: 7afe 46bd e87f 64bc 5875 99bd 7045 b8bc
000002b0: 8a52 b9bd 3f95 c73b 4055 82bd 3ba5 893d
000002c0: 422a d5bb 0b68 f7bb 9d2b 58bb 1d8a f5bd
000002d0: c8bb 053e 3075 073d 09fe 0f3d 5684 713d
000002e0: 5ca7 2fbb 4870 ca3c 6c34 ad3d d1ff bc3d
000002f0: 406a 093e f746 053e 3506 11be 3441 00be
00000300: be7f 4fbd 98c3 14be 9056 cabd 95ce 1abe
00000310: 4305 41bb 7766 03be 0e96 69bd a193 1dbe
00000320: 9a4c ed3d 00a3 a13d 4942 3dbc a381 6bbc
00000330: 08b3 703c 6e3d 38bd 69dc 1f3e 9022 203c
00000340: c0f0 543d 3f89 c93c fd61 cabd 1b9b 1b3c
00000350: 45ff 463d 546c a2bd a940 b73d 3ff0 ba3c
00000360: 24d3 e9bd 298a 36bd 0e4a e93b 3e38 6abd
00000370: 3df0 313e 6153 b93d 4f0b e63d effd 193e
00000380: b3dd 113d 91cc 5a3c c0ab 703d c59c 183d
00000390: 9a76 66bc 01c2 7dba 2ee9 7f3d 3c31 a63d
000003a0: 9383 ad3c d8ed 7f3d 1a0d b93d 2fdf 1a3b
000003b0: ae98 8f3c a35d 9c3d 0e73 e63d a8c9 933d
000003c0: ddc7 6cbe d714 3dbe 48e7 2dbe 717c 2ebd
000003d0: fa4e 33bd ba59 24be aea3 f7bd d156 1abe
000003e0: 77bb 28bd ee4e 9cbc f5b3 8fbb 142d 433b
000003f0: 7ea4 0bbc 5074 19be 07f5 30bc 289e 81bd

conv2.bias f4 [12]
0.026710872 0.067881435 0.08941688 0.00036638285 -0.09389905 0.022171201 -0.10427805 -0.03713345
-0.00840864 -0.17097594 0.037078653 -0.062377967
00000000: c2d0 da3c 6c05 8b3d 3220 b73d 1317 c039
00000010: 254e c0bd 61a0 b53c bb8f d5bd 3f19 18bd
00000020: 64c4 09bc 5114 2fbe c9df 173d 0a80 7fbd

fc1.weight f4 [120, 192]
-0.007120911 -0.004472792 0.037464004 0.07853515 0.024435494 0.05073211 0.009764915 0.1523402
0.10562337 0.057577062 -0.02744575 -0.08817295 0.018149894 0.032879233 0.02090424 0.025162304
0.045505963 0.094464526 -0.025275355 0.0032775258 -0.009994757 0.0017925448 0.027184555 0.025489865
0.046151105 0.072047986 -0.021368716 -0.070957206 0.02915455 0.007025248 -0.019828014 -0.0824553
0.015150091 -0.034257624 -0.04917729 0.037605148 0.023111697 0.03474676 -0.017900264 -0.044817924
-0.004133809 -0.05836174 -0.026802342 -0.009534505 0.018634323 0.018157702 0.016868835 -0.0021667914
0.023170192 -0.047817037 -0.0604072 -0.06591577 -0.08978129 -0.03168815 0.07945473 0.022177694
0.09234995 -0.025020696 0.011626082 0.064046144 0.02267946 0.05822772 0.02706365 0.011033143
-0.15980141 -0.01794517 0.049417585 0.007845057 -0.08308618 -0.07336797 0.08412152 -0.02165226
-0.06692263 -0.09479906 -0.051991872 -0.05448462 0.092179514 -0.017362658 -0.047254015 0.036996543
0.019159673 0.024473058 0.045540337 0.017672148 0.07138737 0.017725544 0.011359491 0.02006006
-0.0028083485 0.056787908 0.06380412 -0.05865719 0.0007612705 0.03598837 0.022079857 -0.0117775295
-0.053955987 0.08419927 0.0414809 -0.022830866 -0.07237212 0.040088028 -0.003859002 -0.1413662
-0.058404237 0.0049422868 0.05237702 -0.026713511 -0.16971728 -0.09523728 0.04269368 0.045147143
-0.1328316 -0.0496146 -0.02356737 -0.018384734 -0.15740333 -0.036667548 -0.0004120562 -0.14561231
-0.17531975 -0.034859113 -0.04040801 -0.03347337 -0.14805005 -0.099320054 0.016470788 -0.017311465
-0.0924287 -0.06411982 -0.0219458 -0.052396756 -0.14309782 0.070507996 -0.092414334 -0.22918415
-0.06927001 -0.050024007 -0.040823184 -0.081086 -0.10695976 -0.14663224 0.005077817 -0.03378368
-0.060554665 -0.01174768 -0.050100844 0.007897297 -0.10510372 -0.045891855 0.068012975 0.08035425
-0.08914529 0.0069466606 -0.015956623 -0.10539131 -0.1289431 -0.07863174 0.007663536 -0.0049045575
-0.10057353 -0.0509717 0.026467444 -0.04406813 -0.039926063 -0.0011513075 -0.0026736737 0.032636885
0.09435933 -0.029720856 0.01573531 0.09699403 0.098302044 0.04644419 0.01654299 -0.105882056
-0.0031731122 0.0064248075 0.06865336 0.008453304 -0.025968175 0.050299875 -0.04578274 -0.026743345
-0.19435471 0.014198148 0.01153235 0.0028898988 -0.106918834 -0.07058017 0.014593207 0.022037767
-0.012310656 -0.02714176 -0.0027834498 0.044339262 0.011583158 0.019891849 0.14764981 0.1595
-0.037983224 -0.13455507 -0.13163093 -0.06259396 -0.0093702795 -0.04259749 -0.04976884 0.0020854962
0.06968499 0.020433834 0.0031567246 -0.021716064 -0.013946071 1.5187048e-05 0.0538375 0.13234706
0.046843972 -0.025572617 -0.06441636 -0.032797698 -0.07641534 -0.07467472 -0.075859666 0.026161913
0.0051043313 0.095941246 0.10296429 0.047289874 -0.019395446 -0.034926265 0.008060967 0.02739684
-0.102565154 -0.182759 -0.13116665 -0.00817698 0.051858705 0.03667249 0.0005945265 -0.03427985
0.11240083 0.120099545 -0.001271513 0.015878296 -0.11825863 -0.12486263 -0.027138082 0.0638167
-0.060653847 -0.04066139 -0.007596074 -0.08609164 0.081035085 -0.038996026 -0.05311203 -0.13313435
00000000: 8856 e9bb 8090 92bb db73 193d 09d7 a03d
00000010: f22c c83c 79cc 4f3d 06fd 1f3c 12ff 1b3e
00000020: 1151 d83d edd5 6b3d e9d5 e0bc 0594 b4bd
00000030: 16af 943c 60ac 063d 5e3f ab3c 2d21 ce3c
00000040: 7664 3a3d 9e76 c13d 430e cfbc c2cb 563b
00000050: 0dc1 23bc d3f3 ea3a 25b2 de3c 1fd0 d03c
00000060: f108 3d3d e58d 933d 720d afbc 0352 91bd
00000070: 86d5 ee3c 0d34 e63b 5c6e a2bc 53de a8bd
00000080: 1638 783c b951 0cbd 206e 49bd db07 1a3d
00000090: be54 bd3c 9e52 0e3d 93a3 92bc 0093 37bd
000000a0: e774 87bb b80c 6fbd 9690 dbbc 9d36 1cbc
000000b0: 02a7 983c 76bf 943c 8330 8a3c ba00 0ebb
000000c0: 6acf bd3c ccdb 43bd 8a6d 77bd d9fe 86bd
000000d0: 41df b7bd 6fcb 01bd 29b9 a23d ffad b53c
000000e0: f821 bd3d 34f8 ccbc 527b 3e3c a02a 833d
000000f0: 46ca b93c 3180 6e3d 96b4 dd3c 5bc4 343c
00000100: fba2 23be c001 93bc 186a 4a3d 8e88 003c
00000110: 1629 aabd f241 96bd e747 ac3d 1560 b1bc
00000120: bb0e 89bd 0226 c2bd 6ef5 54bd 442b 5fbd
00000130: 9dc8 bc3d 223c 8ebc 6d8d 41bd b089 173d
00000140: bff4 9c3c b97b c83c 8188 3a3d 2ec5 903c
00000150: 8b33 923d 2935 913c 291d 3a3c ff54 a43c
00000160: 450c 38bb 709a 683d bcab 823d 8642 70bd
00000170: 0090 473a 8b68 133d d1e0 b43c 8af6 40bc
00000180: f400 5dbd ab70 ac3d e0e7 293d cc07 bbbc
00000190: d637 94bd 5833 243d 4fe7 7cbb 4dc2 10be
000001a0: 4839 6fbd e8f2 a13b 4989 563d 4bd6 dabc
000001b0: 5eca 2dbe c30b c3bd 91df 2e3d 36ec 383d
000001c0: 0205 08be ae38 4bbd 5b10 c1bc 959b 96bc
000001d0: 572e 21be b630 16bd 3f09 d8b9 651b 15be
000001e0: 0587 33be 6ec8 0ebd df82 25bd 5f1b 09bd
000001f0: 6f9a 17be 5068 cbbd bfed 863c c6d0 8dbc
00000200: 424b bdbd 4151 83bd aec7 b3bc fb9d 56bd
00000210: 3c88 12be 7f66 903d ba43 bdbd 40af 6abe
00000220: 6fdd 8dbd f9e5 4cbd 3636 27bd 6b10 a6bd
00000230: b80d dbbd c326 16be d163 a63b c260 0abd
00000240: 2b08 78bd 5779 40bc 8b36 4dbd aa63 013c
00000250: 9f40 d7bd 19f9 3bbd 634a 8b3d c590 a43d
00000260: ce91 b6bd d0a0 e33b 77b7 82bc 66d7 d7bd
00000270: a909 04be ad09 a1bd 661e fb3b 69b6 a0bb
00000280: 7ff9 cdbd b4c7 50bd 41d2 d83c c980 34bd
00000290: 8389 23bd 78e7 96ba cd38 2fbb 41ae 053d
000002a0: 773f c13d 2779 f3bc 56e7 803c cea4 c63d
000002b0: 9552 c93d 433c 3e3d 2a85 873c b1d8 d8bd
000002c0: fdf3 4fbb 3187 d23b 229a 8c3d ba7f 0a3c
000002d0: 36bb d4bc 3e07 4e3d af86 3bbd dc14 dbbc
000002e0: ec04 47be 599f 683c 2ff2 3c3c 7564 3d3b
000002f0: 43f8 dabd 568c 90bd 5918 6f3c 8c88 b43c
00000300: a2b2 49bc 6558 debc 8a6a 36bb 169d 353d
00000310: 49c7 3d3c 3bf4 a23c 8331 173e f853 233e
00000320: 4c94 1bbd cec8 09be 42ca 06be 4331 80bd
00000330: cd85 19bc b57a 2ebd 69da 4bbd d2ac 083b
00000340: 01b7 8e3d db64 a73c 0de1 4e3b e3e5 b1bc
00000350: 107e 64bc e0cb 7e37 b684 5c3d fd85 073e
00000360: 77df 3f3d aa7d d1bc b9ec 83bd e156 06bd
00000370: a57f 9cbd 0fef 98bd 505c 9bbd 8251 d63c
00000380: 3c42 a73b d87c c43d f1de d23d 07b3 413d
00000390: 33e3 9ebc d80e 0fbd 2512 043c 566f e03c
000003a0: ae0d d2bd 2d25 3bbe 8d50 06be bdf8 05bc
000003b0: cb69 543d e535 163d ffd9 1b3a 0769 0cbd
000003c0: 6832 e63d c0f6 f53d e6a8 a6ba 3313 823c
000003d0: 9531 f2bd fbb7 ffbd af50 debc 54b2 823d
000003e0: 2b70 78bd 8f8c 26bd 7de8 f8bb d050 b0bd
000003f0: b9f5 a53d 4cba 1fbd 008c 59bd 5f54 08be

fc1.bias f4 [120]
0.057975676 -0.06753291 -0.061439928 0.03736233 0.04158301 -0.08384652 -0.02328644 0.12960319
0.008232593 0.15446956 0.0007297763 -0.046570923 0.16358998 -0.03015502 0.06355418 -0.02193561
-0.08101572 0.118679725 0.06332577 0.032703176 0.046217244 -0.05931995 0.11474122 -0.009451589
-0.040354002 0.06004709 -0.081747964 0.121398225 0.025623847 0.06868887 0.09817871 -0.0731045
0.067253545 0.006448606 0.13073379 -0.035395253 0.07671576 0.030412411 -0.007201389 -0.014388107
0.029145855 0.026274886 0.029123059 0.058180355 0.026066508 -0.048897218 0.08076935 0.03105143
0.119906686 0.024997106 0.0128599815 0.062425647 0.15716359 0.1098478 0.08264784 0.038303863
0.084957875 -0.0017809817 -0.12119906 0.095806636 0.089501835 0.045745943 0.13493903 -0.032569766
-0.047206033 -0.08396934 0.0063870903 0.018391846 0.10356032 -0.029514791 0.07865003 -0.0015210776
0.06692498 0.09754349 0.007318361 0.044876557 0.030380577 0.05604578 -0.035174176 -0.068918064
-0.0824467 -0.11087174 -0.008835746 -0.12026679 0.01794733 0.074214965 -0.009740885 -0.006632864
-0.044024434 0.08492942 0.09227108 0.053540643 0.0026508188 0.023843016 -0.10959317 -0.00038992267
0.0670546 0.07996576 0.06859108 0.106099054 -0.04434611 -0.070281856 0.030571707 0.01048223
-0.042940103 -0.02203843 -0.029344812 -0.0045987666 -0.0045793443 0.043649003 -0.054846797 -0.051294073
-0.06727588 0.023871565 -0.07401813 0.14109284 0.034862638 -0.048224773 -0.061616495 0.00453206
00000000: e777 6d3d b24e 8abd 6fa8 7bbd 3e09 193d
00000010: f252 2a3d b9b7 abbd 34c3 bebc b3b6 043e
00000020: ffe1 063c 452d 1e3e 754e 3f3a 27c1 3ebd
00000030: 2284 273e a907 f7bc b228 823d 4fb2 b3bc
00000040: 92eb a5bd 5b0e f33d f1b0 813d c4f3 053d
00000050: 4b4e 3d3d 7af9 72bd 72fd ea3d d6da 1abc
00000060: 3d4a 25bd f0f3 753d 7a6b a7bd a29f f83d
00000070: 1ae9 d13c c0ac 8c3d eb11 c93d d0b7 95bd
00000080: 3abc 893d d44e d33b 14df 053e 9dfa 10bd
00000090: 271d 9d3d 7323 f93c a1f9 ebbb 18bc 6bbc
000000a0: 4ac3 ee3c 6e3e d73c 7b93 ee3c 864e 6e3d
000000b0: 6e89 d53c 7348 48bd 676a a53d 925f fe3c
000000c0: a391 f53d bbc6 cc3c acb2 523c 09b2 7f3d
000000d0: 7eef 203e e2f7 e03d 4543 a93d 83e4 1c3d
000000e0: 65fe ad3d d46f e9ba 3637 f8bd 4536 c43d
000000f0: bd4c b73d 1960 3b3d 752d 0a3e e067 05bd
00000100: 1d5b 41bd 1ef8 abbd cc4a d13b 7faa 963c
00000110: 6f17 d43d 01c9 f1bc 4413 a13d e55e c7ba
00000120: f70f 893d e2c4 c73d ddce ef3b 7bd0 373d
00000130: b0e0 f83c 4390 653d cc12 10bd ea24 8dbd
00000140: d1d9 a8bd b910 e3bd cec3 10bc 6f4e f6bd
00000150: 4706 933c 04fe 973d 3c98 1fbc 7f58 d9bb
00000160: f752 34bd 7aef ad3d 9ff8 bc3d 6f4d 5b3d
00000170: 5cb9 2d3b 6e52 c33c 6272 e0bd 896e ccb9
00000180: ec53 893d 17c5 a33d 7b79 8c3d 764a d93d
00000190: 44a4 35bd efef 8fbd 8471 fa3c a9bd 2b3c
000001a0: f6e1 2fbd f089 b4bc 8864 f0bc 40b1 96bb
000001b0: 530e 96bb 4cc9 323d 09a7 60bd bc19 52bd
000001c0: f0c7 89bd 4d8e c33c d196 97bd a47a 103e
000001d0: 20cc 0e3d 5787 45bd 9461 7cbd ad81 943b

fc2.weight f4 [60, 120]
-0.042632226 -0.110227704 0.086817704 0.12775174 0.006457731 -0.109775454 0.06700404 0.064424835
-0.0032586171 0.08338101 0.06143037 0.12938932 -0.0058100163 0.08357252 -0.040626798 -0.048311237
-0.09500094 0.09809822 0.126788 0.09495978 0.03166655 -0.031324238 0.062936276 0.049215972
-0.06316018 0.09301599 -0.038210932 -0.10341567 -0.067927524 0.08072326 -0.11758765 -0.018823273
0.09523202 0.09044125 0.046346013 -0.067929335 0.12183701 -0.03720772 0.0978365 -0.10107314
-0.15215907 -0.09658961 0.15453857 0.08931658 0.046516348 0.06941311 -0.012875725 0.119829535
0.04280415 -0.088450186 -0.099162996 0.063783616 -0.01525805 -0.058781 0.036746733 0.12252714
0.087194316 0.04105456 -0.14027879 0.078312166 -0.047037087 0.050109416 -0.0404734 0.034351625
-0.05139818 -0.18211621 -0.014739671 0.1481802 0.016530367 -0.032799 -0.04307931 0.07314097
-0.12164484 0.054136537 -0.105234906 -0.051676072 0.068409815 -0.033377904 -0.01913811 0.066516854
-0.11499973 0.008262443 0.016716573 -0.012679356 0.09290694 0.11648476 0.1309179 0.0022823361
-0.049554 0.06705894 0.040920794 0.11933532 0.034939475 0.05243506 0.0013222194 0.10136922
0.09792457 -0.014521642 0.043444306 0.008293242 -0.009270465 0.029992959 0.012109683 0.09130289
-0.11671341 0.06259998 -0.09246525 0.0031062195 0.15453894 -0.052059576 -0.0024877284 0.003878175
-0.08450057 0.026329128 -0.19494663 0.020175135 -0.01060309 0.08094091 -0.026674405 -0.049269762
-0.0074524507 0.0377291 0.12999341 0.101388 -0.0028597054 0.070267715 -0.04895138 0.06516978
0.11767174 -0.02176383 0.0374491 -0.033091906 -0.0050414233 0.01173366 0.08561444 -0.032167673
0.013404875 -0.01316005 0.037691776 0.042450435 0.0967883 0.10707419 -0.07380081 -0.064921185
0.018908681 0.04456022 0.08695845 0.040011663 0.028282207 0.113908984 0.10018257 0.02451192
0.15769945 0.034759518 0.08314563 0.034458626 -0.024068216 -0.0007107333 -0.09605654 0.11887644
-0.009498892 -0.12696806 0.1478908 0.11938317 -0.037802577 -0.064842716 0.0029703479 0.08516275
0.02028407 0.061087582 -0.088638455 -0.009944984 0.10046525 -0.02543764 0.09052739 0.048543103
0.041715685 0.079198346 -0.035977338 0.061764065 0.054093864 0.015158654 -0.018397981 -0.01152823
0.025247516 -0.03825275 -0.015643153 0.16582161 -0.05860511 0.012734817 -0.10841922 -0.03260758
-0.040625848 0.051913917 0.06316312 0.084895715 0.09248863 0.02315329 0.066875406 0.1446181
-0.003003103 0.08697384 0.02788129 0.08881148 0.026520656 0.045494854 0.07584794 0.10221613
0.03749571 -0.037099883 -0.069754444 0.12099256 -0.008357299 0.13028172 0.17683493 0.09902628
0.012206624 -0.014647596 0.1026509 -0.057734348 0.026161639 0.06623969 0.017681988 0.055670492
-0.0047107376 0.15263201 0.04844324 -0.037505973 0.07346372 0.018642684 -0.0817988 0.017735783
-0.12646188 -0.07391432 -0.033168584 0.05509043 0.032507658 -0.05112666 0.09614273 0.071650825
0.039097983 0.081435084 0.09775901 0.14490901 0.09317537 0.059439216 -0.076272756 0.12909667
0.13201489 -0.025296874 0.039658714 0.011067727 0.0016263528 0.09932384 -0.04967704 0.015472786
00000000: 219f 2ebd 10bf e1bd 7bcd b13d 5ad1 023e
00000010: 609b d33b f4d1 e0bd 6a39 893d 2bf1 833d
00000020: 868e 55bb aac3 aa3d 699e 7b3d a27e 043e
00000030: f361 bebb 1228 ab3d 4968 26bd 01e2 45bd
00000040: da8f c2bd b8e7 c83d b7d4 013e 467a c23d
00000050: c9b4 013d d84d 00bd bce4 803d b096 493d
00000060: 205a 81bd 2b7f be3d 1183 1cbd 98cb d3bd
00000070: 961d 8bbd 3d52 a53d cbd1 f0bd 4433 9abc
00000080: 0109 c33d 4339 b93d 51d5 3d3d 891e 8bbd
00000090: af85 f93d 1f67 18bd 815e c83d 6fff cebd
000000a0: 96cf 1bbe c6d0 c5bd 5c3f 1e3e 9ceb b63d
000000b0: ed87 3e3d 7628 8e3d b4f4 52bc 3069 f53d
000000c0: 6853 2f3d 5f25 b5bd f815 cbbd fca0 823d
000000d0: e6fc 79bc 59c4 70bd be83 163d 82ef fa3d
000000e0: ef92 b23d d428 283d 3ea5 0fbe 2162 a03d
000000f0: f6a9 40bd 883f 4d3d 70c7 25bd 4ab4 0c3d
00000100: e686 52bd ac7c 3abe a97e 71bc 8dbc 173e
00000110: b16a 873c 3f58 06bd ee73 30bd efca 953d
00000120: ee20 f9bd 46be 5d3d 6685 d7bd 4aaa 53bd
00000130: 721a 8c3d 45b7 08bd 87c7 9cbc fd39 883d
00000140: fa84 ebbd 335f 073c 32f1 883c 13bd 4fbc
00000150: fe45 be3d 908f ee3d 580f 063e 3f93 153b
00000160: 23f9 4abd 3356 893d 909c 273d 1466 f43d
00000170: b21c 0f3d 25c6 563d 524e ad3a aa9a cf3d
00000180: ad8c c83d 2eec 6dbc a8f2 313d 61e0 073c
00000190: 26e3 17bc cbb3 f53c b167 463c 02fd ba3d
000001a0: 7107 efbd 6b34 803d 6c5e bdbd b791 4b3b
000001b0: 753f 1e3e 6c3c 55bd 2809 23bb fb28 7e3b
000001c0: a30e adbd 2fb0 d73c 17a0 47be 5346 a53c
000001d0: 95b8 2dbc 59c4 a53d 4884 dabc 17cf 49bd
000001e0: b033 f4bb d489 1a3d fe1c 053e 83a4 cf3d
000001f0: e569 3bbb 85e8 8f3d 3e81 48bd bc77 853d
00000200: e2fd f03d 0f4a b2bc 3a64 193d 618b 07bd
00000210: 8632 a5bb 893e 403c a056 af3d 40c2 03bd
00000220: 1fa0 5b3c 409d 57bc b162 1a3d 82e0 2d3d
00000230: f238 c63d b749 db3d e124 97bd 66f5 84bd
00000240: 61e6 9a3c c784 363d 4617 b23d 45e3 233d
00000250: 16b0 e73c 1d49 e93d 852c cd3d 39cd c83c
00000260: f77b 213e ff5f 0e3d 4248 aa3d 7d24 0d3d
00000270: b52a c5bc 8150 3aba 4bb9 c4bd 7e75 f33d
00000280: 3ea1 1bbc ea03 02be b070 173e 2a7f f43d
00000290: e0d6 1abd 42cc 84bd 2baa 423b cf69 ae3d
000002a0: c72a a63c f936 7a3d 1488 b5bd 49f0 22bc
000002b0: bac0 cd3d 9962 d0bc 6d66 b93d 22d5 463d
000002c0: 11de 2a3d be32 a23d f95c 13bd 51fc 7c3d
000002d0: 8791 5d3d 015c 783c 5db7 96bc e7e0 3cbc
000002e0: e1d3 ce3c eaae 1cbd 1226 80bc 24cd 293e
000002f0: e90b 70bd b2a5 503c e50a debd 878f 05bd
00000300: 4a67 26bd b0a3 543d aa5b 813d cedd ad3d
00000310: ae6a bd3d f8ab bd3c f9f5 883d c416 143e
00000320: b5cf 44bb 571f b23d 4e67 e43c cbe2 b53d
00000330: d941 d93c d058 3a3d 2a56 9b3d b156 d13d
00000340: 1a95 193d 0cf6 17bd 6bdb 8ebd f3ca f73d
00000350: 0ded 08bc 9268 053e 3714 353e 4ace ca3d
00000360: 4bfe 473c 78fc 6fbc a33a d23d da7a 6cbd
00000370: ef50 d63c ada8 873d d1d9 903c be06 643d
00000380: 885c 9abb 914b 1c3e 6b6c 463d dd9f 19bd
00000390: 2674 963d 8bb8 983c 2186 a7bd a24a 913c
000003a0: 397f 01be 6460 97bd c8db 07bd 81a6 613d
000003b0: c026 053d 306a 51bd 7be6 c43d abbd 923d
000003c0: 3525 203d 70c7 a63d e035 c83d 0763 143e
000003d0: bad2 be3d 8976 733d e434 9cbd eb31 043e
000003e0: e92e 073e 643b cfbc 2d71 223d 6955 353c
000003f0: 582b d53a 4c6a cb3d 277a 4bbd 9181 7d3c

fc2.bias f4 [60]
0.09091755 0.04935272 0.027874943 0.2610397 0.031294562 0.118288666 0.13623779 0.057288557
0.18590775 0.11306973 -0.048911933 -0.026685653 -0.06827644 -0.07746963 0.12425413 0.13318439
0.10322006 -0.030751428 0.024781222 0.034320984 0.13193898 0.029150855 -0.08151261 0.052663714
-0.075071596 0.1647118 0.17267445 0.12638344 -0.007877027 0.14637953 0.19647162 -0.02801234
-0.0065355394 0.26337066 0.124319196 -0.0004934822 -0.0021247962 0.12898898 -0.11568701 0.00538551
0.05007272 0.003985508 -0.06910457 0.040747613 0.066635594 0.005219283 0.18042843 0.100837335
0.15893711 -0.046349335 0.23750666 0.036280952 0.0069987434 -0.031486087 0.22797379 0.1157829
0.00861133 -0.14689296 -0.0635959 0.028249688
00000000: fb32 ba3d 1426 4a3d fe59 e43c ffa6 853e
00000010: ba2e 003d 5441 f23d eb81 0b3e 68a7 6a3d
00000020: 9a5e 3e3e 1a91 e73d e157 48bd df9b dabc
00000030: 85d4 8bbd 66a8 9ebd f378 fe3d 7d61 083e
00000040: 0a65 d33d 6bea fbbc fd01 cb3c 2994 0c3d
00000050: 031b 073e c6cd ee3c 15f0 a6bd e8b5 573d
00000060: 23bf 99bd 36aa 283e 92d1 303e a96a 013e
00000070: a50e 01bc 84e4 153e db2f 493e 237a e5bc
00000080: 1428 d6bb 85d8 863e 109b fe3d 085d 01ba
00000090: 2a40 0bbb b015 043e 50ed ecbd ef78 b03b
000000a0: 0d19 4d3d dd98 823b b286 8dbd f8e6 263d
000000b0: 3e78 883d 8506 ab3b 3bc2 383e ce83 ce3d
000000c0: 69c0 223e cdd8 3dbd f234 733e 569b 143d
000000d0: b755 e53b 8ef7 00bd f671 693e 961f ed3d
000000e0: 8916 0d3c 1c6b 16be 913e 82bd e46b e73c

out.weight f4 [10, 60]
-0.12863784 0.12008793 0.17770354 0.03764668 -0.032433324 0.12775365 -0.0554007 0.09593024
-0.040836506 -0.13175142 -0.033083428 -0.19248721 -0.032634176 0.11322166 0.05013029 -0.04759667
-0.17551744 -0.03983046 -0.09888627 -0.105922125 -0.21627648 -0.09981517 0.20548905 -0.03053942
0.11853568 -0.11225386 -0.17746817 -0.007596452 0.13932125 -0.11677094 -0.04635103 0.13378347
-0.03809177 0.027406326 -0.08935887 -0.02330327 -0.11573476 -0.13575228 0.07156897 -0.1374876
0.014424643 -0.057949822 0.12530395 0.13162482 0.07298906 0.12536891 0.18137863 -0.16020128
-0.12925833 -0.020784052 -0.22802642 -0.08566849 0.03563728 -0.14591151 0.14349581 0.034580514
0.14196447 0.010304039 0.10821775 -0.08306782 -0.22172047 -0.12459024 -0.15332587 -0.2294063
0.18721284 0.070375465 -0.17888929 0.16112901 0.046489112 0.21468498 0.11550606 0.16141967
0.044400994 0.18710023 -0.20290229 0.17388329 0.11038652 0.11286416 0.059880048 0.10112422
0.15451026 -0.09309338 0.07515514 0.23696549 -0.020895006 -0.18589713 0.17534308 -0.07247075
-0.13036264 -0.15792836 0.06381201 -0.0020907726 -0.08179025 -0.11031933 -0.041461304 0.011531707
-0.021624174 -0.08549707 -0.009936454 -0.0013647892 0.15276383 -0.0941233 0.029325282 0.043584257
-0.122762874 0.030761797 0.00090027356 -0.15943529 0.07031092 -0.0917793 0.021962438 -0.034651086
-0.18774891 -0.18107669 0.117684364 0.10277883 -0.087873146 -0.08681317 -0.041243225 -0.02045222
-0.0024058816 -0.031181894 0.06557584 -0.0762445 0.054320075 -0.10627671 -0.16100097 -0.11687558
-0.15620738 -0.004891866 0.120757215 0.04849333 -0.06816287 0.037983008 0.15890889 0.15246807
0.14694147 -0.06890643 0.11820477 0.07419099 0.012549194 0.017310835 -0.07354433 -0.053858396
0.1364073 -0.061857887 -0.13166852 0.12832291 -0.111383356 -0.006589228 -0.13496977 -0.06167495
-0.08216218 -0.101296626 0.03145833 0.18477991 0.17024049 -0.20768812 0.12101287 -0.04216853
-0.12855141 -0.060777254 0.0709185 -0.104638495 0.13958845 -0.028172292 0.037989005 -0.03563658
-0.095366426 0.1701872 -0.13122584 -0.12628861 0.022807624 -0.08825718 0.0035193649 0.18351893
-0.086586736 0.12464267 -0.13502763 0.0188207 -0.12929171 0.0717133 0.049166635 0.035820622
-0.09237988 -0.11871433 -0.16889668 0.0069517116 0.006586168 0.12526208 0.1075483 -0.028791128
-0.17778426 -0.15315707 -0.07429343 -0.114863545 0.13255453 -0.23761947 0.09661391 -0.038138162
-0.016867837 -0.12821744 -0.17403565 -0.12312329 -0.20663925 -0.0056274207 0.13530892 0.08945825
-0.16259336 0.13388091 0.0038946727 0.17439485 -0.18105765 0.05623485 -0.06365346 0.13969114
0.042220056 0.09236327 0.107525855 0.06514926 -0.23190358 0.16131017 -0.003450755 -0.13118422
-0.05540171 0.047963005 0.099084854 0.016369557 0.14540222 -0.09538643 0.031332087 -0.1153338
0.117444806 -0.045047663 0.12691724 0.042909473 0.0545377 -0.07990343 0.07536885 -0.15440448
0.061982505 0.096850194 0.0471632 -0.06441217 0.13473564 -0.16872531 0.15317166 0.07251967
-0.15959525 0.039068323 0.13844492 0.11877291 0.033483513 0.13954718 -0.14467333 0.010087774
00000000: a3b9 03be a9f0 f53d ebf7 353e 6833 1a3d
00000010: ced8 04bd dad1 023e d8eb 62bd 1377 c43d
00000020: 2e44 27bd d8e9 06be 7d82 07bd 5e1b 45be
00000030: 6aab 05bd c2e0 e73d 6b55 4d3d baf4 42bd
00000040: d8ba 33be 4425 23bd e284 cabd b3ed d8bd
00000050: 9577 5dbe e56b ccbd b96b 523e ce2d fabc
00000060: d6c2 f23d 5ae5 e5bd 37ba 35be a8eb f8bb
00000070: 3baa 0e3e 9a25 efbd 94da 3dbd 89fe 083e
00000080: 1e06 1cbd 3b83 e03c c901 b7bd 80e6 bebc
00000090: 5906 edbd a502 0bbe c192 923d 8dc9 0cbe
000000a0: 5655 6c3c cb5c 6dbd ae4f 003e a8c8 063e
000000b0: 4a7b 953d b560 003e 52bb 393e ce0b 24be
000000c0: 4c5c 04be 5143 aabc c27f 69be f672 afbd
000000d0: 66f8 113d d469 15be 91f0 123e 4ca4 0d3d
000000e0: 225f 113e 46d2 283c 45a1 dd3d 761f aabd
000000f0: b10a 63be 2b29 ffbd 7501 1dbe 7ce9 6abe
00000100: b9b4 3f3e 0321 903d c12e 37be 01ff 243e
00000110: 5e6b 3e3d 61d6 5b3e 718e ec3d 334b 253e
00000120: d1dd 353d 3497 3f3e 9ec5 4fbe 760e 323e
00000130: 5412 e23d 5325 e73d c844 753d 371a cf3d
00000140: f037 1e3e bea7 bebd f0ea 993d 15a7 723e
00000150: 012c abbc d15b 3ebe 238d 333e 8b6b 94bd
00000160: c97d 05be f9b7 21be dfaf 823d 5805 09bb
00000170: a681 a7bd 1aef e1bd 54d3 29bd 7cef 3c3c
00000180: 2e25 b1bc 1619 afbd 82cc 22bc bae2 b2ba
00000190: 1f6e 1c3e b7c3 c0bd 933b f03c 6885 323d
000001a0: 1a6b fbbd 2a00 fc3c 5600 6c3a 0143 23be
000001b0: 2cff 8f3d c9f6 bbbd 92ea b33c 4cee 0dbd
000001c0: 4041 40be 2b6c 39be 8004 f13d b57d d23d
000001d0: d6f6 b3bd 1acb b1bd a8ee 28bd 6a8b a7bc
000001e0: ffab 1dbb 2c71 ffbc a04c 863d 1426 9cbd
000001f0: ba7e 5e3d 9ba7 d9bd 70dd 24be 775c efbd
00000200: d4f4 1fbe f24b a0bb 8f4f f73d f1a0 463d
00000210: fa98 8bbd 1294 1b3d 03b9 223e 9720 1c3e
00000220: d377 163e d01e 8dbd 5815 f23d 72f1 973d
00000230: 229b 4d3c 74cf 8d3c 699e 96bd 9f9a 5cbd
00000240: 5bae 0b3e b25e 7dbd 1dd4 06be 1567 033e
00000250: f51c e4bd 73ea d7bb 8435 0abe df9e 7cbd
00000260: a544 a8bd 9b74 cfbd 73da 003d f236 3d3e
00000270: 8653 2e3e 32ac 54be 98d5 f73d e9b8 2cbd
00000280: fba2 03be 92f1 78bd b83d 913d b54c d6bd
00000290: 46f0 0e3e 94c9 e6bc 5c9a 1b3d aaf7 11bd
000002a0: 794f c3bd 8e45 2e3e 1160 06be cd51 01be
000002b0: 0ed7 ba3c 2ec0 b4bd 25a5 663b 63ec 3b3e
000002c0: 6354 b1bd a844 ff3d af44 0abe de2d 9a3c
000002d0: 0c65 04be 6cde 923d f462 493d a5b8 123d
000002e0: aa31 bdbd 8020 f3bd 40f3 2cbe 2fcb e33b
000002f0: c8d0 d73b b444 003e 4842 dc3d 5fdb ebbc
00000300: 140d 36be 35d5 1cbe 2727 98bd 943d ebbd
00000310: 60bc 073e 8552 73be 83dd c53d c336 1cbd
00000320: 6b2e 8abc 6f4b 03be 6736 32be 1028 fcbd
00000330: 3d99 53be 3a66 b8bb 6c8e 0a3e e335 b73d
00000340: e07e 26be 1418 093e c43d 7f3b 9094 323e
00000350: 2d67 39be 8456 663d bf5c 82bd 320b 0f3e
00000360: f0ee 2c3d f428 bd3d 8436 dc3d fa6c 853d
00000370: 2278 6dbe 7e2e 253e 1026 62bb 2855 06be
00000380: e7ec 62bd db74 443d 00ed ca3d 7319 863c
00000390: 52e4 143e f659 c3bd 1356 003d 2134 ecbd
000003a0: e786 f03d e683 38bd 98f6 013e d8c1 2f3d
000003b0: ec62 5f3d 69a4 a3bd fc5a 9a3d 351c 1ebe
000003c0: 5ee1 7d3d 6559 c63d 332e 413d 87ea 83bd
000003d0: 24f8 093e 54c6 2cbe 08d9 1c3e 3185 943d
000003e0: f06c 23be 1b06 203d 81c4 0d3e 363f f33d
000003f0: 0226 093d 75e5 0e3e 3f25 14be 3147 253c

out.bias f4 [10]
-0.097392224 -0.0929855 -0.1376551 0.12837093 -0.16832156 0.101210766 0.020496516 0.054013986
0.06903473 -0.018039437
00000000: 9375 c7bd 2f6f bebd 75f5 0cbe ab73 033e
00000010: 7d5c 2cbe 9747 cf3d 4fe8 a73c c53d 5d3d
00000020: 1562 8d3d 71c7 93bc
